code/recommendation-server/models/wide.pth (torch, 323306 bytes, 4 tensors)

wide.weight f4 [1, 10]
00000000: ec92 7d3d 8783 253d a1d3 09bc 28bb 943e
00000010: 27e6 8dbd c5af 823d eda6 1dbe 182c 3e3e
00000020: baba 8e3e ba8f 6dbe
0.061907694 0.040408637 -0.008412273 0.2904904 -0.06928664 0.06381182 -0.15395708 0.18571508
0.27876836 -0.23199359

deep.fc1.weight f4 [100, 800]
00000000: 1a1f 5ebd 39b2 3b3d b067 cdbd 6264 d73d
00000010: ddd6 dabb d335 393d eaf1 663e b30d 18bd
00000020: 67b1 86bd e0e5 b4bc 6750 07bc 41a8 82bd
00000030: 311a 7d3d 065d debb abae b83d 92c4 80bd
00000040: 8d51 983d afe5 6ebd 26ab 9ebd 178c a73d
00000050: 4529 dd3b 414b 543c ccae 833d fbdb b43d
00000060: dc82 6bbc 4ea0 943d d888 923e 3a8c c4bd
00000070: 6b4a c73c a63b 8ebd d879 babd 3c43 fbbd
00000080: f0e6 5a3c 77e8 5dbc 2210 7cbb 00ca 813b
00000090: aacd 88bd 0baf 5e3d ba1e 0ebd 11a8 7cbe
000000a0: 9571 203d fd92 93bd a893 093e e145 11bd
000000b0: 1146 e13d 3d1c 4a3d 009e 443c 707f b43c
000000c0: 437b a03b f4ac f93c 452b d83c f991 52bd
000000d0: c8cb db3b a3bb dbbd 3669 063b c024 94bc
000000e0: b3dd 80bd 9d76 f4bd 62d7 a43d 7d5e 933e
000000f0: 3cda 6abd 005b 853d ee5f 97bd 9f0b 9fbc
00000100: 8c6b 9dbc 05ce 13bd 4816 20bc 80c8 283d
00000110: 3801 2d3d 3346 50bd ee8b 6fbc e0df ecbd
00000120: 2659 a8bd 1102 8c3d 869f a5bd 5a7d 8f3d
00000130: 8c1b 66bd 68b1 da3d d6bb d139 23cd 983c
00000140: 0ffb aebd b833 45bc a331 1a3e ddc5 85bd
00000150: f7cc cabd 2bbb bd3c 3413 85bd 6236 73bc
00000160: fea5 9fbd b169 97bc ee2a 3fbc 6170 1dba
00000170: d97b 8cbd 6bb0 c139 6a06 8ebb d23e 4b3c
00000180: d366 67bc 0183 37be 25e8 353d 3a80 7f3c
00000190: 8acb f83d e358 bc3d e0cc c6bd 17ec 503d
000001a0: c314 3ebd db66 af3d 33eb 29be 96da 07be
000001b0: 50a7 13be bad5 3a3c a066 e3bb 526d a13d
000001c0: ec21 10be 2f37 68be 9eac 20be 0d49 2c3d
000001d0: 295a fdbc f950 ed3c e887 093d 956b 1cbe
000001e0: f411 a33d 2698 e63d da94 463d 2a35 3f3d
000001f0: a4a7 193c 208b 02be 30dc 9e3d 7bb5 c6bd
00000200: 6ef5 073d 8c67 603d 759c 69bd 50c4 9a3d
00000210: f508 3f3c 0046 16bd 1e70 9f3d d435 cdbc
00000220: 2723 c03c 3819 1f3e 36b4 a3bd 4e13 9ebc
00000230: e6b1 d5bc 4c8c 5cbc ed2b f7bc a7b3 6bbd
00000240: dc05 17bc 846b aa3d abbe f1bd 1baa 0e3e
00000250: 7493 5ebe b360 163d 7fe6 4f3e 1fc3 563c
00000260: 9036 0a3c cae4 89bb 3c97 6abb d528 54bd
00000270: 0513 263c 42e5 c93d 6eb5 26bb 7cc7 ac3b
00000280: f5a0 903d ab6c d63d 5ee0 95bd 63fd 19bd
00000290: 1c53 2abc 394a 1c3d 5a74 ac3b cee7 62bb
000002a0: 5530 373d b61c 82bd ca63 bd3c 919a a6bd
000002b0: 3b18 13bd 30c9 98bb 29d9 f6bc 70b3 883d
000002c0: a2ae 023e 50e4 953c b68d 57bd a954 2c3e
000002d0: 48a0 523d 88da f13c 5347 1b3d a1ee babd
000002e0: 4611 173d a64c c0bd ed6b d8bd bd8a 513c
000002f0: 6608 3b3d 479a 5cbd 0631 503b d589 b6bc
00000300: a1e8 58bd c808 35be 8929 803c dff2 003d
00000310: c67d 91bd 749d 003d b0ed db3d fe96 e13b
00000320: b3a0 a0bd c943 ebbd c040 a43c a512 18be
00000330: ad86 d83c 2927 29bb f342 08be 071a 37bd
00000340: c28b cf3d 327d 833c b2bd 5dbd 7529 bbbd
00000350: 6cf3 d03d 1a3a 6d3c 3481 8cbc 5827 4c3d
00000360: b8d3 01bc 097c 933d 714c a33d 63a1 9e3c
00000370: bd1f 8b3a 2b49 0a3c b49b 273d b167 e9bc
00000380: b194 a6bd 45b7 b0bd cf78 403c f5c9 febc
00000390: 9844 efbd 64fd 0a3d 4cfb ea3d 6281 d63d
000003a0: 309d a23c 9cad 533b a1b2 3cbd 061d 00be
000003b0: e10d 8a3d edab 44bd 069a 5c3e d7fc 633c
000003c0: 9d39 ad3b 9f6d 9e3d 9d82 d7bd d348 9b3b
000003d0: afe9 95bd e9a1 273d 0eaa e3bc f77e 653e
000003e0: 3623 a63a f880 00be 83ab a439 6aba 943d
000003f0: 108c f73c 486a 8f3d c792 c23d b829 67bd
-0.05422888 0.045824263 -0.100295424 0.105171934 -0.0066784457 0.045217346 0.2255322 -0.03712244
-0.065768056 -0.02208227 -0.0082589155 -0.06379748 0.061792556 -0.0067859916 0.0901769 -0.06287493
0.074374296 -0.058324512 -0.07747488 0.08181017 0.0067493045 0.012957395 0.06429824 0.088310204
-0.014374461 0.07257138 0.28620028 -0.095970586 0.024327477 -0.06944971 -0.09105271 -0.12268683
0.013360724 -0.0135441935 -0.0038461764 0.003960848 -0.06679852 0.054366153 -0.034697272 -0.24673487
0.03917082 -0.0720577 0.13435233 -0.035467032 0.10999692 0.049343336 0.012000561 0.022033423
0.0048975064 0.030477978 0.02638782 -0.05140874 0.006707642 -0.10729148 0.0020509488 -0.01808393
-0.06292286 -0.11936686 0.080488935 0.28783026 -0.05733703 0.065114975 -0.07391344 -0.019414721
-0.019216321 -0.036085147 -0.009770937 0.041206837 0.04223749 -0.050848197 -0.014620764 -0.11566138
-0.08220129 0.06836332 -0.08087067 0.07006331 -0.056178614 0.10678369 0.00040003535 0.018652504
-0.085439794 -0.0120362565 0.15057997 -0.0653188 -0.09902375 0.023160538 -0.06497803 -0.014844509
-0.07795332 -0.018483015 -0.01166795 -0.00060058205 -0.068595596 0.0003694327 -0.0043342607 0.012405114
-0.014123636 -0.17921068 0.044410843 0.015594536 0.12148197 0.09196641 -0.097070456 0.051006403
-0.04640652 0.0856454 -0.16593628 -0.13266978 -0.14419293 0.011403495 -0.006939724 0.07882179
-0.1407544 -0.22677301 -0.15690848 0.042061854 -0.03092678 0.028969275 0.033576876 -0.15275414
0.07962409 0.11259489 0.0484818 0.04668156 0.009378348 -0.12748384 0.07756841 -0.097025834
0.033193044 0.05478625 -0.057033975 0.07556975 0.01165985 -0.03668785 0.077850565 -0.025050081
0.023454262 0.15536964 -0.07993357 -0.019296315 -0.026085805 -0.013461184 -0.030172313 -0.057544377
-0.009217706 0.08321288 -0.11803945 0.13932078 -0.21735936 0.036713313 0.20302771 0.013108044
0.00843586 -0.004208182 -0.003579571 -0.051796753 0.010136371 0.098581806 -0.002543773 0.005272804
0.0706195 0.104699455 -0.07318185 -0.037595164 -0.010395791 0.03815672 0.0052628936 -0.003462303
0.044723827 -0.063531324 0.023118872 -0.0813495 -0.03591178 -0.0046626553 -0.030132847 0.0667485
0.1276193 0.018297344 -0.05262538 0.1682917 0.051422387 0.02952315 0.037909817 -0.09127546
0.036881708 -0.093896195 -0.1056746 0.012789425 0.045662306 -0.053858068 0.0031767501 -0.02228252
-0.052956227 -0.17679131 0.015644806 0.03148162 -0.071040675 0.03140016 0.10738695 0.0068844547
-0.07843151 -0.11487538 0.020050406 -0.14850862 0.026431406 -0.0025810695 -0.13306789 -0.044702556
0.101340786 0.016050909 -0.054135986 -0.09138767 0.10202679 0.0144791845 -0.017151453 0.04984221
-0.007924013 0.07201392 0.079735644 0.019364065 0.0010614317 0.008440296 0.040919974 -0.028491827
-0.081338294 -0.08628706 0.011747553 -0.03110216 -0.11683005 0.03393306 0.11473712 0.104738966
0.019850343 0.0032299524 -0.04606879 -0.12511072 0.067409284 -0.048015524 0.2154313 0.013915262
0.005286409 0.07735752 -0.105229594 0.004738906 -0.07319962 0.040925894 -0.02779105 0.22411714
0.0012675289 -0.12549198 0.00031408304 0.07262118 0.030218154 0.070026934 0.09500652 -0.05643627

deep.fc1.bias f4 [100]
00000000: 722f 0bbd 17e6 433c 669e 1e3c d5b9 c23d
00000010: d466 863d 8f97 00bd 9881 1bbd ecdd 24bd
00000020: 9568 adbc dd78 9bbc 606e a83d 2e14 7a3b
00000030: 8684 b13d f6b2 323d f343 21bd 85f9 34b9
00000040: 3d73 693c 2ffb f93c afe9 40bb d54c 09bc
00000050: ea25 1f3c 1377 653d a2e4 c9bc 9120 b73d
00000060: c78f 173c a2f1 a73c d70e 1a3d 315b 873d
00000070: 8a58 8e3c ec73 f0ba 2a4a 38bd 9334 fc3b
00000080: 3110 18bd 191c 103c 5ff2 9abc e486 9fbb
00000090: d65e 183c a6c8 f8bb 7bd6 f9bc 30d3 613c
000000a0: 78b5 3d3d c044 8f3b cad9 fabb 2efe 0c3d
000000b0: bbd0 57bb a4bd bfbc ed71 02bc 0c27 10bc
000000c0: 521f 2dbc 213e e43c 56ea ccbb 31de 4e3c
000000d0: ca9e f5bb ab5e b1bc 5e18 ad3d 10e4 a93c
000000e0: 3591 66bc c8b8 30bd 9000 a8bc 7c2d a53c
000000f0: 4a1b b2bc 23d9 c3bc b00f 9c3c 242b 36bc
00000100: 221b f1bc 123b 693c 9d9d 75bb c0e5 813d
00000110: 1ea5 653d a116 a53d 540e 8dba a40d 1dbd
00000120: 28af 1fbd e0a3 16bd f7d6 c1bc 41ca ddbc
00000130: a881 9f3c ab06 67bc 27bb 253b b63d 3cbd
00000140: eeb1 8a3d ba9d 9a3d f07a 07bd 5051 f53b
00000150: 7a28 4b3d 1d9c 15bd 2c8a ee3c 0261 48bc
00000160: 22c9 873d 54cd 1c3a 723a 31bc 0d73 cc3b
00000170: 33ea 093d 037e fdbc 7c78 47bb d0b4 6b3d
00000180: f687 34bc a267 353d cec3 a8ba 16a1 44bc
-0.033980794 0.011956713 0.00968132 0.09508101 0.06562582 -0.031394538 -0.037965387 -0.040250704
-0.021168033 -0.01897853 0.08224177 0.0038159 0.08667855 0.0436277 -0.039371442 -0.00017259091
0.014248666 0.030515281 -0.0029436161 -0.008380135 0.009713629 0.05602176 -0.024645153 0.089417584
0.009250588 0.020500962 0.03761181 0.0660919 0.017376203 -0.0018345094 -0.044992603 0.007696697
-0.037124816 0.0087957615 -0.0189144 -0.004868375 0.009299954 -0.0075922785 -0.03049778 0.013783261
0.04631564 0.0043722093 -0.007655357 0.034422092 -0.003293081 -0.023405857 -0.007961732 -0.008798372
-0.010566549 0.027861657 -0.006253521 0.012626217 -0.007495736 -0.021651587 0.08451913 0.020738631
-0.014072706 -0.04314497 -0.02050808 0.02016329 -0.021741528 -0.02390725 0.01905045 -0.011118684
-0.029431883 0.014235275 -0.0037477978 0.063426495 0.05606567 0.08060957 -0.0010761716 -0.038343087
-0.0389854 -0.036777377 -0.023662074 -0.027073981 0.019471005 -0.014100711 0.0025288553 -0.04595729
0.06772219 0.07549615 -0.033076227 0.0074865 0.04959915 -0.036525834 0.02911862 -0.01223016
0.0663016 0.0005981524 -0.010817157 0.006239301 0.033670615 -0.030943876 -0.0030436805 0.057545483
-0.011018744 0.044288285 -0.0012875737 -0.0120012965

deep.fc2.weight f4 [1, 100]
00000000: 93cb 37bd d789 223d 6e91 433b 6a79 76bd
00000010: 9b67 94be 97a4 de3e bf7c 42bb da83 ff3c
00000020: 7631 c93e 6c3e 943d a33c 77be 5737 2bbc
00000030: f61c debe b7d5 e9bd d051 4cb9 ca74 403d
00000040: b238 b5bd eef5 66be cdac 963d e817 293d
00000050: 7b5a 033b 1470 8abe 1b1f 5c3e d83a b8be
00000060: 5c26 8a3d d0a8 11bf 3d2d 93bb df51 1cbd
00000070: 53d4 47bc 52ac 3e3c fcaa ac3c d85a d53c
00000080: 148d 03bc 4293 023a 56f9 8d3d b4d7 f73c
00000090: efdb b43c 7f06 933c 03c0 033f ebe6 6b3d
000000a0: 2f7a 53bc a071 1e3b 5daf c53b 49fd d4bc
000000b0: 9ddc f63c bab3 09bb 0a10 74bb 9408 a0bd
000000c0: ff80 643a 5073 8cbe 4856 c43e f335 843c
000000d0: 1d22 82bb b93f d73c 2b70 c6be 53d5 613b
000000e0: ae44 e33d 5017 2b3c b7ed 3ebd 0bf9 303b
000000f0: 1974 473d 3825 5c3b 556d c23c 3305 8cbd
00000100: 78a0 7ebb 3a13 6abe 2bac 633c c5c8 06be
00000110: 539f 62be f87d 22bd 7dab d13c ec77 81bb
00000120: ba4b 3d3d 057b 87bd 2ce9 2d3e 7de1 033f
00000130: dbf8 0f3d 3be8 0c3a 849e 873e c02a 073c
00000140: c704 5ebd 925a 60bd 527a f93c a27d 1c3e
00000150: ff46 96be 0830 933a 35df 44be f1ac e13e
00000160: 59cd b0be ff1b ab3e e6aa 0e3f 64ba 3ebb
00000170: c215 c8bc 242b e93c c8ac 81ba 024e a5bb
00000180: 5db2 173f 9091 80bc 15db 6a3d 8b1a 7f3d
-0.044871878 0.039682236 0.0029841322 -0.060174383 -0.28985295 0.43484947 -0.0029676405 0.031190801
0.39295548 0.072384685 -0.24144225 -0.010450206 -0.4338147 -0.11417716 -0.00019485434 0.04698638
-0.088487044 -0.22554752 0.07357178 0.041282564 0.0020042944 -0.27038634 0.21496241 -0.35982394
0.06745598 -0.5689821 -0.004491477 -0.038164016 -0.012196618 0.011637764 0.021077625 0.026044294
-0.008029241 0.00049810496 0.06932323 0.030254222 0.022077529 0.017947434 0.5146486 0.057593267
-0.012907549 0.0024176612 0.006032868 -0.025999682 0.030134493 -0.0021011666 -0.0037241005 -0.07814136
0.00087167317 -0.27431726 0.38347077 0.016139006 -0.003971352 0.026275503 -0.38757452 0.0034459427
0.11097084 0.01044257 -0.04661342 0.002700391 0.048694704 0.003359152 0.023733774 -0.06836929
-0.003885297 -0.22858897 0.0138960285 -0.13162525 -0.2213109 -0.039670914 0.025594467 -0.0039510634
0.046214797 -0.06615261 0.1698348 0.5151594 0.035149436 0.0005375181 0.26488125 0.0082499385
-0.054203775 -0.054773875 0.030453835 0.152823 -0.2935104 0.0011229524 -0.19225772 0.44077256
-0.34531668 0.33419797 0.5572952 -0.0029102797 -0.024424437 0.028462954 -0.0009893412 -0.0050446996
0.59256536 -0.01569441 0.05733784 0.062281173
